…
model.add(Dense(512))\n","model.add(Activation('relu'))\n","model.add(Dropout(0.5))\n","model.add(Dense(NUM_CLASSES + 4, activation='softmax'))\n","\n","model.compile(optimizer='adam', loss='binary_crossentropy', metrics=['logcosh'])\n","# model.load_weights('params.hdf5')\n","model.summary()"],"execution_count":40,"outputs":[{"output_type":"stream","text":["_________________________________________________________________\n","Layer (type)                 Output Shape              Param #   \n","=================================================================\n","conv2d_47 (Conv2D)           (None, 120, 120, 64)      1792      \n","_________________________________________________________________\n","activation_55 (Activation)   (None, 120, 120, 64)      0         \n","_________________________________________________________________\n","conv2d_48 (Conv2D)           (None, 120, 120, 64)      36928     \n","_________________________________________________________________\n","activation_56 (Activation)   (None, 120, 120, 64)      0         \n","_________________________________________________________________\n","max_pooling2d_24 (MaxPooling (None, 60, 60, 64)        0         \n","_________________________________________________________________\n","dropout_32 (Dropout)         (None, 60, 60, 64)        0         \n","_________________________________________________________________\n","conv2d_49 (Conv2D)           (None, 60, 60, 128)       73856     \n","_________________________________________________________________\n","activation_57 (Activation)   (None, 60, 60, 128)       0         \n","_________________________________________________________________\n","conv2d_50 (Conv2D)           (None, 60, 60, 128)       147584    \n","_________________________________________________________________\n","activation_58 (Activation)   (None, 60, 60, 128)       0         \n","_________________________________________________________________\n","max_pooling2d_25 (MaxPooling (None, 30, 30, 128)       0         \n","_________________________________________________________________\n","dropout_33 (Dropout)         (None, 30, 30, 128)       0         \n","_________________________________________________________________\n","conv2d_51 (Conv2D)           (None, 30, 30, 64)        73792     \n","_________________________________________________________________\n","activation_59 (Activation)   (None, 30, 30, 64)        0         \n","_________________________________________________________________\n","conv2d_52 (Conv2D)           (None, 30, 30, 64)        36928     \n","_________________________________________________________________\n","activation_60 (Activation)   (None, 30, 30, 64)        0         \n","_________________________________________________________________\n","max_pooling2d_26 (MaxPooling (None, 15, 15, 64)        0         \n","_________________________________________________________________\n","dropout_34 (Dropout)         (None, 15, 15, 64)        0         \n","_________________________________________________________________\n","flatten_9 (Flatten)          (None, 14400)             0         \n","_________________________________________________________________\n","dense_17 (Dense)             (None, 512)               7373312   \n","_________________________________________________________________\n","activation_61 (Activation)   (None, 512)               0         \n","_________________________________________________________________\n","dropout_35 (Dropout)         (None, 512)               0         \n","_________________________________________________________________\n","dense_18 (Dense)             (None, 9)                 4617      \n","=================================================================\n","Total params: 7,748,809\n","Trainable params: 7,748,809\n","Non-trainable params: 0\n","_________________________________________________________________\n"],"name":"stdout"}]},{"metadata":{"id":"x-IJz0lTLOSg","colab_type":"code","colab":{"base_uri":"https://localhost:8080/","height":1421},"outputId":"9840eb41-2080-45
…
tmax')(x)\n","model=Model(inputs=base_model.input, outputs=prediction)\n","for layer in base_model.layers[:15]:\n","    layer.trainable=False\n","\n","model.compile(optimizer='adam',\n","              loss='binary_crossentropy',\n","              metrics=['accuracy'])\n","\n","model.summary()"],"execution_count":26,"outputs":[{"output_type":"stream","text":["_________________________________________________________________\n","Layer (type)                 Output Shape              Param #   \n","=================================================================\n","input_7 (InputLayer)         (None, 120, 120, 3)       0         \n","_________________________________________________________________\n","block1_conv1 (Conv2D)        (None, 120, 120, 64)      1792      \n","_________________________________________________________________\n","block1_conv2 (Conv2D)        (None, 120, 120, 64)      36928     \n","_________________________________________________________________\n","block1_pool (MaxPooling2D)   (None, 60, 60, 64)        0         \n","_________________________________________________________________\n","block2_conv1 (Conv2D)        (None, 60, 60, 128)       73856     \n","_________________________________________________________________\n","block2_conv2 (Conv2D)        (None, 60, 60, 128)       147584    \n","_________________________________________________________________\n","block2_pool (MaxPooling2D)   (None, 30, 30, 128)       0         \n","_________________________________________________________________\n","block3_conv1 (Conv2D)        (None, 30, 30, 256)       295168    \n","_________________________________________________________________\n","block3_conv2 (Conv2D)        (None, 30, 30, 256)       590080    \n","_________________________________________________________________\n","block3_conv3 (Conv2D)        (None, 30, 30, 256)       590080    \n","_________________________________________________________________\n","block3_pool (MaxPooling2D)   (None, 15, 15, 256)       0         \n","_________________________________________________________________\n","block4_conv1 (Conv2D)        (None, 15, 15, 512)       1180160   \n","_________________________________________________________________\n","block4_conv2 (Conv2D)        (None, 15, 15, 512)       2359808   \n","_________________________________________________________________\n","block4_conv3 (Conv2D)        (None, 15, 15, 512)       2359808   \n","_________________________________________________________________\n","block4_pool (MaxPooling2D)   (None, 7, 7, 512)         0         \n","_________________________________________________________________\n","block5_conv1 (Conv2D)        (None, 7, 7, 512)         2359808   \n","_________________________________________________________________\n","block5_conv2 (Conv2D)        (None, 7, 7, 512)         2359808   \n","_________________________________________________________________\n","block5_conv3 (Conv2D)        (None, 7, 7, 512)         2359808   \n","_________________________________________________________________\n","block5_pool (MaxPooling2D)   (None, 3, 3, 512)         0         \n","_________________________________________________________________\n","global_average_pooling2d_6 ( (None, 512)               0         \n","_________________________________________________________________\n","dense_11 (Dense)             (None, 1024)              525312    \n","_________________________________________________________________\n","dense_12 (Dense)             (None, 9)                 9225      \n","=================================================================\n","Total params: 15,249,225\n","Trainable params: 7,613,961\n","Non-trainable params: 7,635,264\n","_________________________________________________________________\n"],"name":"stdout"}]},{"metadata":{"id":"TsrhG7Op5s_-","colab_type":"code","colab":{"base_uri":"https://localhost:8080/","height":1421},"outputId":"1598ee3
…
